tlearning/logreg/models_code/data/tch_model.pth (torch, 124554 bytes, 2 tensors)

linear.weight f4 [10, 3072]
000000 79 4b aa 3a 52 20 0d bc a1 98 01 bc 18 23 6a bc
       0.0012992463 -0.008613663 -0.007909925 -0.014290594
000010 c5 31 3b 3b b0 56 bf ba ed 9a 10 3c c9 00 3f 3c
       0.00285636 -0.0014597978 0.008826 0.011657902
000020 59 cb 1d 3c 98 f1 9a bc 78 30 8d 3b 45 53 18 bb
       0.009631001 -0.018914029 0.0043087564 -0.0023242992
000030 e7 ac ec 3b c5 1b d4 3b 29 80 3d bc dc 2e 45 3b
       0.00722276 0.006473037 -0.0115662 0.0030087745
000040 48 35 3f bc 68 ef b4 bb 14 e2 03 bc c9 ba 5f bc
       -0.011670418 -0.0055217035 -0.008049507 -0.013655373
000050 b4 89 ae bc e4 fa 01 3c 3b 0a 42 bc d4 dc 0f bc
       -0.021305896 0.007933352 -0.011843259 -0.008780677
000060 8f 26 41 3c a0 69 0f ba 01 7d 35 bc 6d 4c bd bb
       0.011788978 -0.00054707564 -0.011077167 -0.005776933
000070 2c e8 ae 3b 14 99 97 bc 4c bd 95 bc 3b a9 93 bc
       0.0053377356 -0.01850561 -0.01827874 -0.018025031
000080 02 f8 03 3c de 97 a5 bc a0 e8 42 3c bf 6e ab bc
       0.008054735 -0.020214017 0.011896282 -0.020926831
000090 3f c4 8e bb 95 bf d2 bb c2 b4 a0 3b b9 1d 9c bc
       -0.0043568905 -0.0064315298 0.0049043605 -0.019057142
0000a0 e6 35 aa bc 20 27 81 bc 34 a0 07 3b 86 42 9c bc
       -0.020777654 -0.015765727 0.0020694854 -0.01907469
0000b0 51 0d ba 3b e7 66 70 39 58 25 a2 bc b7 47 58 bb
       0.005677857 0.00022926518 -0.019793198 -0.003300173
0000c0 5e b1 a6 bb 7e 3b 11 3c 98 72 50 3c 8a b5 70 3a
       -0.005087062 0.008864282 0.012722634 0.0009182325
0000d0 ec b1 cf 3b 10 91 4f 3c 9c 18 80 bc bc b6 c5 bb
       0.0063383486 0.012668863 -0.015636735 -0.0060337465
0000e0 ef 10 3f 3b 93 d6 78 bb 8e 70 14 bc c7 c2 c7 3a
       0.002915438 -0.0037969693 -0.009060038 0.0015240543
0000f0 93 42 33 bb a7 b1 ad 3a 9b 16 37 bc cd c6 84 ba
       -0.0027352914 0.0013251797 -0.011174823 -0.0010130048
000100 99 06 86 bc 67 da 38 bc 3d e3 b2 3b a9 ed 66 bc
       -0.016360568 -0.01128254 0.005459218 -0.0140947485
000110 c4 82 1c bc b2 68 33 3c e2 f7 07 bc 14 b4 6e bc
       -0.009552661 0.010950254 -0.008298846 -0.014569301
000120 c1 f3 39 bc 0b 5a 43 3c c2 3b 85 bb 65 27 ec 3b
       -0.011349619 0.011923323 -0.0040659616 0.0072068446
000130 82 4f 2c bc 00 fa bf bb ea e0 10 3c c0 8b cd 3b
       -0.010517003 -0.0058586597 0.008842686 0.006272763
000140 66 c4 d8 3b 2c cd 5f 3b f9 5d 44 bc c4 44 93 ba
       0.0066152094 0.0034149392 -0.011985295 -0.0011235704
000150 80 eb 54 bc 33 0a 91 39 ad 22 8a bb af 94 52 bc
       -0.012995601 0.00027664154 -0.0042155595 -0.012852832
000160 59 c1 da bb b2 1a 67 bb f7 8d 09 bc 72 24 99 bc
       -0.006675881 -0.0035263714 -0.008395663 -0.018694136
000170 f5 64 54 bb e0 d8 a9 bc bf ce 0a 3b d8 58 52 3c
       -0.0032408808 -0.020733297 0.002118036 0.012838565
000180 aa e4 cc 3a 6c 7d c2 3b fd 48 9b 3b 91 29 1e 3c
       0.0015632112 0.0059353616 0.0047389255 0.009653465
000190 1e fb 93 bc cc 30 a4 bc 76 ca b3 b9 74 80 62 bc
       -0.018064078 -0.0200428 -0.00034292386 -0.013824571
0001a0 98 00 21 3a 3c 0a 57 3c 97 ce 8a bc cf c1 9c 3a
       0.0006141751 0.013124999 -0.016944213 0.0011959615
0001b0 e1 f6 74 bc 6f e7 3d 3c 74 9e 5e bc 39 07 a1 3a
       -0.014951439 0.011590823 -0.013587583 0.0012285478
0001c0 71 61 dc bb c5 c4 49 bb f8 73 bf 3b b6 66 eb bb
       -0.006725483 -0.003078745 0.005842682 -0.007183875
0001d0 c4 43 fc bb 18 65 5d 3c d2 eb 86 bc 45 a3 2f ba
       -0.007698508 0.013512872 -0.01646987 -0.0006700049
0001e0 a0 23 3c bc f4 2f 64 3c 32 13 af bc ce c4 81 bc
       -0.011483103 0.013927449 -0.021371458 -0.015840914
0001f0 5b bf fa ba 09 85 67 bc a8 bf 8b bc d7 01 88 bb
       -0.0019130515 -0.014130839 -0.017059162 -0.00415061
000200 0c 53 4c bb 80 7a 28 3a 6e d8 89 bc bb a8 46 bc
       -0.003117743 0.00064269453 -0.016826835 -0.012125189
000210 e2 76 6f bc 29 e7 48 bb 66 1b 1d 3c ad 59 a9 bc
       -0.014615746 -0.003065536 0.009589052 -0.020672644
000220 61 aa c4 bb a0 e9 a6 bb 73 f3 61 bb ba 2b e9 ba
       -0.006001756 -0.0050937682 -0.0034477382 -0.0017789521
000230 78 e7 ad 3b d2 89 f5 3b ba 31 92 bb 81 05 38 3c
       0.0053071342 0.007493236 -0.0044614943 0.011231781
000240 7f 6a 29 3c 43 4e 41 bc dc ba 5b 3c 82 6b 7e bc
       0.010340332 -0.011798444 0.01341125 -0.015528562
000250 89 09 4e bb 95 ed a8 ba 41 da 0f 3c eb 66 a7 3b
       -0.003143879 -0.0012888188 0.008780063 0.0051087043
000260 63 55 6e 3c ac 2b 8b bb d0 b9 4e 3c 23 f1 f7 bb
       0.014546725 -0.0042471495 0.012617543 -0.0075665875
000270 88 3e 70 bc ea d4 87 bc 2e e0 e2 3b 00 51 c0 3b
       -0.014663346 -0.016581018 0.006923697 0.005869031
000280 44 61 68 3c a2 a6 89 bc 3f bf 3f 3c f1 2b 6d bc
       0.014183346 -0.01680309 0.0117033115 -0.0144758085
000290 5f 88 be 3b ec f9 35 3c 14 44 31 3c 26 af c4 bb
       0.0058145965 0.011106949 0.010819454 -0.0060023246
0002a0 27 aa b7 3a 77 96 5b bc 45 ab 6c bc ca 16 16 3c
       0.0014012501 -0.013402573 -0.014445131 0.009160707
0002b0 05 99 61 bc f2 cb 25 3c 79 d1 84 bc 4c 43 b2 3a
       -0.013769393 0.010119425 -0.016213166 0.0013600378
0002c0 a2 2a e0 bb f9 a1 61 3c 30 14 8d bb ba 0f 1a bc
       -0.0068410197 0.013771527 -0.004305385 -0.009403164
0002d0 cf 1f 62 3b a2 97 63 bc 6d 34 5c bb c1 aa e5 3a
       0.0034503823 -0.013891133 -0.0033600584 0.0017522202
0002e0 05 ff 48 3c a5 d7 fb bb 69 56 3d 3b 5e fd 35 3c
       0.012267833 -0.007685619 0.0028890616 0.011107771
0002f0 b0 89 33 3c 99 5e 79 ba ae b0 5d 39 3a 24 80 bc
       0.01095812 -0.00095126923 0.0002114202 -0.015642274
000300 b3 cd ab 3a 0a 85 a0 bc d5 77 9f 3b e1 38 dd ba
       0.0013107568 -0.019594688 0.00486658 -0.0016877913
000310 bb 91 77 3c bd 0f 3b bc c8 96 6d bc 74 0e 04 bc
       0.015110428 -0.0114173265 -0.014501281 -0.0080600865
000320 cd be 63 3c 15 0f 64 bb b5 b7 2e bb ca 0e 6a bc
       0.013900471 -0.0034799029 -0.002665979 -0.014285753
000330 08 ae 44 bc f4 38 a2 bc 8a 14 a4 ba 87 54 e5 bb
       -0.012004383 -0.019802548 -0.0012518328 -0.006998602
000340 0e c5 73 3b da 62 8c bb 7c 8d 15 3c 20 f9 0a 3c
       0.0037196311 -0.004284245 0.009127971 0.008482248
000350 3b b0 89 3b 67 81 ad bc 74 65 97 39 17 f7 8d bc
       0.0042019165 -0.021179868 0.00028876553 -0.017329736
000360 42 67 bd bb a1 1e 61 bc 34 90 49 bb 11 c9 14 bc
       -0.0057801316 -0.013740213 -0.0030756118 -0.009081141
000370 0f b9 07 bc 78 8b 7d 3b c1 34 6f bc 58 f6 6b bb
       -0.0082838675 0.0038687866 -0.01459998 -0.0036004987
000380 cd f9 58 3b de a6 9a ba c1 e3 69 bc 1c 10 47 bc
       0.0033107877 -0.0011798998 -0.014275492 -0.012149837
000390 2b 4c 1f 3c 7e 03 80 bc 05 76 b3 ba 81 1e f4 bb
       0.00972275 -0.015626665 -0.0013691789 -0.0074499254
0003a0 07 c5 63 3c ec b9 0d 3c 2a ce 47 3c 99 bd 62 bc
       0.013901955 0.008650284 0.012195149 -0.013839149
0003b0 39 f4 33 3c 59 d2 9b bb 9e d2 40 3c e1 53 1e 3c
       0.01098352 -0.0047553 0.011768965 0.009663553
0003c0 00 e2 57 bc 64 dd ee 3b 4e 23 b5 ba 8d 8b f8 ba
       -0.013176441 0.0072895754 -0.0013819726 -0.0018962488
0003d0 7f 15 ad bc 86 fc 48 bb b9 90 3c 3c c1 ff cc 3b
       -0.021128414 -0.0030668094 0.011509114 0.006256074
0003e0 d6 1d 6f bb 47 2f 96 3b 38 0c 51 3c 90 90 65 3c
       -0.003648629 0.0045832726 0.012759261 0.014011517
0003f0 ba c5 17 bb da 50 ac 3a e1 c3 6b 39 e8 4f 22 bb
       -0.0023158626 0.0013146654 0.00022484317 -0.0024766866

linear.bias f4 [10]
000000 d0 49 f5 bc f0 00 02 bc 4f 55 7d 3c cf 84 5c 3c
       -0.029942423 -0.007934794 0.015462234 0.013459398
000010 8b 7d 6a 3c 0e 2f aa 3b f8 db c1 3c 67 53 c4 bb
       0.014312158 0.0051935976 0.02366446 -0.0059913876
000020 2e 85 24 3b 8d 3d 41 3c
       0.0025103795 0.01179446
